2019-06-02 22:42:13,505:INFO: Loading the datasets...
2019-06-02 22:42:13,536:INFO: Sequential(
  (0): AlexNet(
    (features): Sequential(
      (0): Conv2d(1, 64, kernel_size=(11, 11), stride=(4, 4), padding=(2, 2))
      (1): ReLU(inplace)
      (2): MaxPool2d(kernel_size=3, stride=2, padding=0, dilation=1, ceil_mode=False)
      (3): Conv2d(64, 192, kernel_size=(5, 5), stride=(1, 1), padding=(2, 2))
      (4): ReLU(inplace)
      (5): MaxPool2d(kernel_size=3, stride=2, padding=0, dilation=1, ceil_mode=False)
      (6): Conv2d(192, 384, kernel_size=(3, 3), stride=(1, 1), padding=(1, 1))
      (7): ReLU(inplace)
      (8): Conv2d(384, 256, kernel_size=(3, 3), stride=(1, 1), padding=(1, 1))
      (9): ReLU(inplace)
      (10): Conv2d(256, 256, kernel_size=(3, 3), stride=(1, 1), padding=(1, 1))
      (11): ReLU(inplace)
      (12): MaxPool2d(kernel_size=3, stride=2, padding=0, dilation=1, ceil_mode=False)
    )
    (avgpool): AdaptiveAvgPool2d(output_size=(6, 6))
    (classifier): Sequential(
      (0): Dropout(p=0.5)
      (1): Linear(in_features=9216, out_features=4096, bias=True)
      (2): ReLU(inplace)
      (3): Dropout(p=0.5)
      (4): Linear(in_features=4096, out_features=4096, bias=True)
      (5): ReLU(inplace)
      (6): Linear(in_features=4096, out_features=1000, bias=True)
    )
  )
  (1): Post_AlexNet(
    (linear): Linear(in_features=1000, out_features=2, bias=True)
  )
)
2019-06-02 22:42:13,536:INFO: Validating
2019-06-02 22:42:13,536:INFO: Initializing measurement
2019-06-02 22:42:13,642:DEBUG: STREAM b'IHDR' 16 13
2019-06-02 22:42:13,642:DEBUG: STREAM b'IHDR' 16 13
2019-06-02 22:42:13,642:DEBUG: STREAM b'IHDR' 16 13
2019-06-02 22:42:13,642:DEBUG: STREAM b'IHDR' 16 13
2019-06-02 22:42:13,642:DEBUG: STREAM b'IDAT' 41 26242
…
2019-06-02 22:43:05,948:INFO:         Measure elapsed time
2019-06-02 22:43:05,948:INFO:     Sample 3:
2019-06-02 22:43:05,948:INFO:         Loading Varable
2019-06-02 22:43:05,948:INFO:         Compute output
2019-06-02 22:43:05,950:INFO:         Measure accuracy and record cost
2019-06-02 22:43:05,954:INFO:         Measure recall_diab
2019-06-02 22:43:05,954:INFO:         Measure precision_diab
2019-06-02 22:43:05,954:INFO:         Measure recall_glau
2019-06-02 22:43:49,662:INFO: Loading the datasets...
2019-06-02 22:43:49,692:INFO: Sequential(
  (0): AlexNet(
    (features): Sequential(
      (0): Conv2d(1, 64, kernel_size=(11, 11), stride=(4, 4), padding=(2, 2))
      (1): ReLU(inplace)
      (2): MaxPool2d(kernel_size=3, stride=2, padding=0, dilation=1, ceil_mode=False)
      (3): Conv2d(64, 192, kernel_size=(5, 5), stride=(1, 1), padding=(2, 2))
      (4): ReLU(inplace)
      (5): MaxPool2d(kernel_size=3, stride=2, padding=0, dilation=1, ceil_mode=False)
      (6): Conv2d(192, 384, kernel_size=(3, 3), stride=(1, 1), padding=(1, 1))
      (7): ReLU(inplace)
      (8): Conv2d(384, 256, kernel_size=(3, 3), stride=(1, 1), padding=(1, 1))
      (9): ReLU(inplace)
      (10): Conv2d(256, 256, kernel_size=(3, 3), stride=(1, 1), padding=(1, 1))
      (11): ReLU(inplace)
      (12): MaxPool2d(kernel_size=3, stride=2, padding=0, dilation=1, ceil_mode=False)
    )
    (avgpool): AdaptiveAvgPool2d(output_size=(6, 6))
    (classifier): Sequential(
      (0): Dropout(p=0.5)
      (1): Linear(in_features=9216, out_features=4096, bias=True)
      (2): ReLU(inplace)
      (3): Dropout(p=0.5)
      (4): Linear(in_features=4096, out_features=4096, bias=True)
      (5): ReLU(inplace)
      (6): Linear(in_features=4096, out_features=1000, bias=True)
    )
  )
  (1): Post_AlexNet(
    (linear): Linear(in_features=1000, out_features=2, bias=True)
  )
)
2019-06-02 22:43:49,692:INFO: Validating
2019-06-02 22:43:49,692:INFO: Initializing measurement
2019-06-02 22:43:49,859:INFO:     Sample 0:
2019-06-02 22:43:49,859:INFO:         Loading Varable
2019-06-02 22:43:49,864:INFO:         Compute output
2019-06-02 22:43:49,986:INFO:         Measure accuracy and record cost
2019-06-02 22:45:12,607:INFO: Loading the datasets...
2019-06-02 22:45:12,637:INFO: Sequential(
  (0): AlexNet(
    (features): Sequential(
      (0): Conv2d(1, 64, kernel_size=(11, 11), stride=(4, 4), padding=(2, 2))
      (1): ReLU(inplace)
      (2): MaxPool2d(kernel_size=3, stride=2, padding=0, dilation=1, ceil_mode=False)
      (3): Conv2d(64, 192, kernel_size=(5, 5), stride=(1, 1), padding=(2, 2))
      (4): ReLU(inplace)
      (5): MaxPool2d(kernel_size=3, stride=2, padding=0, dilation=1, ceil_mode=False)
      (6): Conv2d(192, 384, kernel_size=(3, 3), stride=(1, 1), padding=(1, 1))
      (7): ReLU(inplace)
      (8): Conv2d(384, 256, kernel_size=(3, 3), stride=(1, 1), padding=(1, 1))
      (9): ReLU(inplace)
      (10): Conv2d(256, 256, kernel_size=(3, 3), stride=(1, 1), padding=(1, 1))
      (11): ReLU(inplace)
      (12): MaxPool2d(kernel_size=3, stride=2, padding=0, dilation=1, ceil_mode=False)
    )
    (avgpool): AdaptiveAvgPool2d(output_size=(6, 6))
    (classifier): Sequential(
      (0): Dropout(p=0.5)
      (1): Linear(in_features=9216, out_features=4096, bias=True)
      (2): ReLU(inplace)
      (3): Dropout(p=0.5)
      (4): Linear(in_features=4096, out_features=4096, bias=True)
      (5): ReLU(inplace)
      (6): Linear(in_features=4096, out_features=1000, bias=True)
    )
  )
  (1): Post_AlexNet(
    (linear): Linear(in_features=1000, out_features=2, bias=True)
  )
)
2019-06-02 22:45:12,638:INFO: Validating
2019-06-02 22:45:12,638:INFO: Initializing measurement
2019-06-02 22:45:12,797:INFO:     Sample 0:
2019-06-02 22:45:12,797:INFO:         Loading Varable
2019-06-02 22:45:12,798:INFO:         Compute output
2019-06-02 22:45:12,923:INFO:         Measure accuracy and record cost
2019-06-02 22:45:12,924:INFO:         Measure recall_diab
…
        0, 0, 0, 0, 0, 0, 0, 0, 0, 0, 0, 0, 0, 0, 1, 0, 0, 0, 1, 0, 0, 0, 0, 0,
        0, 1, 0, 0, 0, 0, 0, 0, 0, 0, 0, 0, 0, 1, 0, 0, 0, 0, 0, 0, 0, 0, 1, 1,
        1, 0, 0, 0, 0, 0, 0, 0, 0, 0, 0, 0, 0, 0, 1, 0, 0, 0, 0, 0, 1, 0, 0, 0,
        0, 0, 0, 0, 0, 0, 0, 0, 0, 0, 0, 0, 0, 0, 0, 0, 0, 0, 0, 0, 0, 0, 0, 0,
        0, 0], dtype=torch.uint8)
2019-06-03 00:34:22,214:INFO:         Measure elapsed time
2019-06-03 00:34:31,553:INFO: Epoch 1:
2019-06-03 00:36:05,436:INFO: Loading the datasets...
2019-06-03 00:36:05,466:INFO: Sequential(
  (0): AlexNet(
    (features): Sequential(
      (0): Conv2d(1, 64, kernel_size=(11, 11), stride=(4, 4), padding=(2, 2))
      (1): ReLU(inplace)
      (2): MaxPool2d(kernel_size=3, stride=2, padding=0, dilation=1, ceil_mode=False)
      (3): Conv2d(64, 192, kernel_size=(5, 5), stride=(1, 1), padding=(2, 2))
      (4): ReLU(inplace)
      (5): MaxPool2d(kernel_size=3, stride=2, padding=0, dilation=1, ceil_mode=False)
      (6): Conv2d(192, 384, kernel_size=(3, 3), stride=(1, 1), padding=(1, 1))
      (7): ReLU(inplace)
      (8): Conv2d(384, 256, kernel_size=(3, 3), stride=(1, 1), padding=(1, 1))
      (9): ReLU(inplace)
      (10): Conv2d(256, 256, kernel_size=(3, 3), stride=(1, 1), padding=(1, 1))
      (11): ReLU(inplace)
      (12): MaxPool2d(kernel_size=3, stride=2, padding=0, dilation=1, ceil_mode=False)
    )
    (avgpool): AdaptiveAvgPool2d(output_size=(6, 6))
    (classifier): Sequential(
      (0): Dropout(p=0.5)
      (1): Linear(in_features=9216, out_features=4096, bias=True)
      (2): ReLU(inplace)
      (3): Dropout(p=0.5)
      (4): Linear(in_features=4096, out_features=4096, bias=True)
      (5): ReLU(inplace)
      (6): Linear(in_features=4096, out_features=1000, bias=True)
    )
  )
  (1): Post_AlexNet(
    (linear): Linear(in_features=1000, out_features=2, bias=True)
  )
)
2019-06-03 00:36:05,466:INFO: Validating
2019-06-03 00:36:05,466:INFO: Initializing measurement
2019-06-03 00:36:13,984:INFO:     Sample 0:
2019-06-03 00:36:13,984:INFO:         Loading Varable
2019-06-03 00:36:14,092:INFO:         Compute output
2019-06-03 00:36:29,011:INFO: Loading the datasets...
2019-06-03 00:36:29,040:INFO: Sequential(
  (0): AlexNet(
    (features): Sequential(
      (0): Conv2d(1, 64, kernel_size=(11, 11), stride=(4, 4), padding=(2, 2))
      (1): ReLU(inplace)
      (2): MaxPool2d(kernel_size=3, stride=2, padding=0, dilation=1, ceil_mode=False)
      (3): Conv2d(64, 192, kernel_size=(5, 5), stride=(1, 1), padding=(2, 2))
      (4): ReLU(inplace)
      (5): MaxPool2d(kernel_size=3, stride=2, padding=0, dilation=1, ceil_mode=False)
      (6): Conv2d(192, 384, kernel_size=(3, 3), stride=(1, 1), padding=(1, 1))
      (7): ReLU(inplace)
      (8): Conv2d(384, 256, kernel_size=(3, 3), stride=(1, 1), padding=(1, 1))
      (9): ReLU(inplace)
      (10): Conv2d(256, 256, kernel_size=(3, 3), stride=(1, 1), padding=(1, 1))
      (11): ReLU(inplace)
      (12): MaxPool2d(kernel_size=3, stride=2, padding=0, dilation=1, ceil_mode=False)
    )
    (avgpool): AdaptiveAvgPool2d(output_size=(6, 6))
    (classifier): Sequential(
      (0): Dropout(p=0.5)
      (1): Linear(in_features=9216, out_features=4096, bias=True)
      (2): ReLU(inplace)
      (3): Dropout(p=0.5)
      (4): Linear(in_features=4096, out_features=4096, bias=True)
      (5): ReLU(inplace)
      (6): Linear(in_features=4096, out_features=1000, bias=True)
    )
  )
  (1): Post_AlexNet(
    (linear): Linear(in_features=1000, out_features=2, bias=True)
  )
)
2019-06-03 00:36:29,040:INFO: Validating
2019-06-03 00:36:29,040:INFO: Initializing measurement
2019-06-03 00:36:38,499:INFO:     Sample 0:
2019-06-03 00:36:38,499:INFO:         Loading Varable
2019-06-03 00:36:38,618:INFO:         Compute output
2019-06-03 00:37:00,716:INFO: Loading the datasets...
2019-06-03 00:37:00,747:INFO: Sequential(
  (0): AlexNet(
    (features): Sequential(
      (0): Conv2d(1, 64, kernel_size=(11, 11), stride=(4, 4), padding=(2, 2))
      (1): ReLU(inplace)
      (2): MaxPool2d(kernel_size=3, stride=2, padding=0, dilation=1, ceil_mode=False)
      (3): Conv2d(64, 192, kernel_size=(5, 5), stride=(1, 1), padding=(2, 2))
      (4): ReLU(inplace)
      (5): MaxPool2d(kernel_size=3, stride=2, padding=0, dilation=1, ceil_mode=False)
      (6): Conv2d(192, 384, kernel_size=(3, 3), stride=(1, 1), padding=(1, 1))
      (7): ReLU(inplace)
      (8): Conv2d(384, 256, kernel_size=(3, 3), stride=(1, 1), padding=(1, 1))
      (9): ReLU(inplace)
      (10): Conv2d(256, 256, kernel_size=(3, 3), stride=(1, 1), padding=(1, 1))
      (11): ReLU(inplace)
      (12): MaxPool2d(kernel_size=3, stride=2, padding=0, dilation=1, ceil_mode=False)
    )
    (avgpool): AdaptiveAvgPool2d(output_size=(6, 6))
    (classifier): Sequential(
      (0): Dropout(p=0.5)
      (1): Linear(in_features=9216, out_features=4096, bias=True)
      (2): ReLU(inplace)
      (3): Dropout(p=0.5)
      (4): Linear(in_features=4096, out_features=4096, bias=True)
      (5): ReLU(inplace)
      (6): Linear(in_features=4096, out_features=1000, bias=True)
    )
  )
  (1): Post_AlexNet(
    (linear): Linear(in_features=1000, out_features=2, bias=True)
  )
)
2019-06-03 00:37:00,747:INFO: Validating
2019-06-03 00:37:00,747:INFO: Initializing measurement
2019-06-03 00:37:05,313:INFO:     Sample 0:
2019-06-03 00:37:05,313:INFO:         Loading Varable
2019-06-03 00:37:05,367:INFO:         Compute output
2019-06-03 00:37:18,862:INFO: Loading the datasets...
2019-06-03 00:37:18,891:INFO: Sequential(
  (0): AlexNet(
    (features): Sequential(
      (0): Conv2d(1, 64, kernel_size=(11, 11), stride=(4, 4), padding=(2, 2))
      (1): ReLU(inplace)
      (2): MaxPool2d(kernel_size=3, stride=2, padding=0, dilation=1, ceil_mode=False)
      (3): Conv2d(64, 192, kernel_size=(5, 5), stride=(1, 1), padding=(2, 2))
      (4): ReLU(inplace)
      (5): MaxPool2d(kernel_size=3, stride=2, padding=0, dilation=1, ceil_mode=False)
      (6): Conv2d(192, 384, kernel_size=(3, 3), stride=(1, 1), padding=(1, 1))
      (7): ReLU(inplace)
      (8): Conv2d(384, 256, kernel_size=(3, 3), stride=(1, 1), padding=(1, 1))
      (9): ReLU(inplace)
      (10): Conv2d(256, 256, kernel_size=(3, 3), stride=(1, 1), padding=(1, 1))
      (11): ReLU(inplace)
      (12): MaxPool2d(kernel_size=3, stride=2, padding=0, dilation=1, ceil_mode=False)
    )
    (avgpool): AdaptiveAvgPool2d(output_size=(6, 6))
    (classifier): Sequential(
      (0): Dropout(p=0.5)
      (1): Linear(in_features=9216, out_features=4096, bias=True)
      (2): ReLU(inplace)
      (3): Dropout(p=0.5)
      (4): Linear(in_features=4096, out_features=4096, bias=True)
      (5): ReLU(inplace)
      (6): Linear(in_features=4096, out_features=1000, bias=True)
    )
  )
  (1): Post_AlexNet(
    (linear): Linear(in_features=1000, out_features=2, bias=True)
  )
)
2019-06-03 00:37:18,892:INFO: Validating
2019-06-03 00:37:18,892:INFO: Initializing measurement
2019-06-03 00:37:22,881:INFO:     Sample 0:
2019-06-03 00:37:22,881:INFO:         Loading Varable
2019-06-03 00:37:22,928:INFO:         Compute output
2019-06-03 00:37:25,324:INFO:         Measure accuracy and record cost
2019-06-03 00:37:25,324:INFO: Check True pos diab
2019-06-03 00:37:25,324:INFO: tensor([0, 0, 1,  ..., 0, 0, 0], dtype=torch.uint8)
2019-06-03 00:37:25,325:INFO: tensor([0, 0, 1,  ..., 0, 1, 0], dtype=torch.uint8)
2019-06-03 00:37:25,325:INFO:         Measure elapsed time
2019-06-03 00:37:25,325:INFO:     Sample 1:
2019-06-03 00:37:25,325:INFO:         Loading Varable
2019-06-03 00:37:41,082:INFO: Loading the datasets...
2019-06-03 00:37:41,110:INFO: Sequential(
  (0): AlexNet(
    (features): Sequential(
      (0): Conv2d(1, 64, kernel_size=(11, 11), stride=(4, 4), padding=(2, 2))
      (1): ReLU(inplace)
      (2): MaxPool2d(kernel_size=3, stride=2, padding=0, dilation=1, ceil_mode=False)
      (3): Conv2d(64, 192, kernel_size=(5, 5), stride=(1, 1), padding=(2, 2))
      (4): ReLU(inplace)
      (5): MaxPool2d(kernel_size=3, stride=2, padding=0, dilation=1, ceil_mode=False)
      (6): Conv2d(192, 384, kernel_size=(3, 3), stride=(1, 1), padding=(1, 1))
      (7): ReLU(inplace)
      (8): Conv2d(384, 256, kernel_size=(3, 3), stride=(1, 1), padding=(1, 1))
      (9): ReLU(inplace)
      (10): Conv2d(256, 256, kernel_size=(3, 3), stride=(1, 1), padding=(1, 1))
      (11): ReLU(inplace)
      (12): MaxPool2d(kernel_size=3, stride=2, padding=0, dilation=1, ceil_mode=False)
    )
    (avgpool): AdaptiveAvgPool2d(output_size=(6, 6))
    (classifier): Sequential(
      (0): Dropout(p=0.5)
      (1): Linear(in_features=9216, out_features=4096, bias=True)
      (2): ReLU(inplace)
      (3): Dropout(p=0.5)
      (4): Linear(in_features=4096, out_features=4096, bias=True)
      (5): ReLU(inplace)
      (6): Linear(in_features=4096, out_features=1000, bias=True)
    )
  )
  (1): Post_AlexNet(
    (linear): Linear(in_features=1000, out_features=2, bias=True)
  )
)
2019-06-03 00:37:41,111:INFO: Validating
2019-06-03 00:37:41,111:INFO: Initializing measurement
2019-06-03 00:37:43,795:INFO:     Sample 0:
2019-06-03 00:37:43,795:INFO:         Loading Varable
2019-06-03 00:37:43,877:INFO:         Compute output
2019-06-03 00:37:45,950:INFO:         Measure accuracy and record cost
2019-06-03 00:37:45,950:INFO: Check True pos diab
…
