…
            Glaucoma precision 0.0000(0.0000)

2019-06-04 20:29:11,845:WARNING: Test: [0/1]
    Time 1.284 (1.284)
    Loss nan (nan)
    Accuracy Diabetes@ 0.879(0.8791)
        Diabetes F1 nan(nan)
            Diabetes recall 0.0000(0.0000)
            Diabetes precision 0.0000(0.0000)
    Accuracy Glaucoma@ 0.881(0.8812)
        Glaucoma F1 nan(nan)
            Glaucoma recall 0.0000(0.0000)
            Glaucoma precision 0.0000(0.0000)

2019-06-07 00:59:33,084:WARNING: Loading Model
2019-06-07 00:59:33,642:WARNING: Model Loaded
2019-06-07 00:59:35,138:WARNING: Sequential(
  (0): AlexNet(
    (features): Sequential(
      (0): Conv2d(1, 64, kernel_size=(11, 11), stride=(4, 4), padding=(2, 2))
      (1): ReLU(inplace)
      (2): MaxPool2d(kernel_size=3, stride=2, padding=0, dilation=1, ceil_mode=False)
      (3): Conv2d(64, 192, kernel_size=(5, 5), stride=(1, 1), padding=(2, 2))
      (4): ReLU(inplace)
      (5): MaxPool2d(kernel_size=3, stride=2, padding=0, dilation=1, ceil_mode=False)
      (6): Conv2d(192, 384, kernel_size=(3, 3), stride=(1, 1), padding=(1, 1))
      (7): ReLU(inplace)
      (8): Conv2d(384, 256, kernel_size=(3, 3), stride=(1, 1), padding=(1, 1))
      (9): ReLU(inplace)
      (10): Conv2d(256, 256, kernel_size=(3, 3), stride=(1, 1), padding=(1, 1))
      (11): ReLU(inplace)
      (12): MaxPool2d(kernel_size=3, stride=2, padding=0, dilation=1, ceil_mode=False)
    )
    (avgpool): AdaptiveAvgPool2d(output_size=(6, 6))
    (classifier): Sequential(
      (0): Dropout(p=0.5)
      (1): Linear(in_features=9216, out_features=4096, bias=True)
      (2): ReLU(inplace)
      (3): Dropout(p=0.5)
      (4): Linear(in_features=4096, out_features=4096, bias=True)
      (5): ReLU(inplace)
      (6): Linear(in_features=4096, out_features=1000, bias=True)
    )
  )
  (1): Post_AlexNet(
    (classifier): Sequential(
      (0): Dropout(p=0.5)
      (1): Linear(in_features=1000, out_features=50, bias=True)
      (2): BatchNorm1d(50, eps=1e-05, momentum=0.1, affine=True, track_running_stats=True)
      (3): ReLU(inplace)
      (4): Dropout(p=0.5)
      (5): Linear(in_features=50, out_features=50, bias=True)
      (6): BatchNorm1d(50, eps=1e-05, momentum=0.1, affine=True, track_running_stats=True)
      (7): ReLU(inplace)
      (8): Linear(in_features=50, out_features=2, bias=True)
    )
  )
)
2019-06-07 00:59:38,943:WARNING: Test: [1/2]
    Time 1.041 (1.874)
    Loss 328.9016 (449.6322)
    Accuracy Diabetes@ 0.035(0.0352)
        Diabetes F1 0.0688(0.0688)
            Diabetes recall 1.0000(1.0000)
            Diabetes precision 0.0356(0.0356)
    Accuracy Glaucoma@ 0.073(0.0727)
        Glaucoma F1 0.1404(0.1404)
            Glaucoma recall 1.0000(1.0000)
…
