2019-06-06 00:03:19,998:WARNING: Loading Model
2019-06-06 00:03:20,179:WARNING: Model Loaded
2019-06-06 00:03:21,680:WARNING: ResNet(
  (features): Sequential(
    (0): Conv2d(1, 64, kernel_size=(7, 7), stride=(2, 2), padding=(3, 3), bias=False)
    (1): BatchNorm2d(64, eps=1e-05, momentum=0.1, affine=True, track_running_stats=True)
    (2): ReLU(inplace)
    (3): MaxPool2d(kernel_size=3, stride=2, padding=1, dilation=1, ceil_mode=False)
    (4): IdentityBlock(
      (Convpass): Sequential(
        (0): Conv2d(64, 160, kernel_size=(5, 5), stride=(1, 1), padding=(2, 2))
        (1): BatchNorm2d(160, eps=1e-05, momentum=0.1, affine=True, track_running_stats=True)
        (2): ReLU(inplace)
        (3): Conv2d(160, 256, kernel_size=(5, 5), stride=(1, 1), padding=(2, 2))
        (4): BatchNorm2d(256, eps=1e-05, momentum=0.1, affine=True, track_running_stats=True)
        (5): ReLU(inplace)
        (6): Conv2d(256, 256, kernel_size=(5, 5), stride=(2, 2), padding=(2, 2))
      )
      (identityPass): Conv2d(64, 256, kernel_size=(5, 5), stride=(2, 2), padding=(2, 2))
    )
    (5): BatchNorm2d(256, eps=1e-05, momentum=0.1, affine=True, track_running_stats=True)
    (6): ReLU(inplace)
    (7): MaxPool2d(kernel_size=3, stride=2, padding=1, dilation=1, ceil_mode=False)
    (8): IdentityBlock(
      (Convpass): Sequential(
        (0): Conv2d(256, 384, kernel_size=(7, 7), stride=(1, 1), padding=(3, 3))
        (1): BatchNorm2d(384, eps=1e-05, momentum=0.1, affine=True, track_running_stats=True)
        (2): ReLU(inplace)
        (3): Conv2d(384, 512, kernel_size=(7, 7), stride=(1, 1), padding=(3, 3))
        (4): BatchNorm2d(512, eps=1e-05, momentum=0.1, affine=True, track_running_stats=True)
        (5): ReLU(inplace)
        (6): Conv2d(512, 512, kernel_size=(7, 7), stride=(3, 3), padding=(3, 3))
      )
      (identityPass): Conv2d(256, 512, kernel_size=(7, 7), stride=(3, 3), padding=(3, 3))
    )
    (9): BatchNorm2d(512, eps=1e-05, momentum=0.1, affine=True, track_running_stats=True)
    (10): ReLU(inplace)
    (11): MaxPool2d(kernel_size=3, stride=1, padding=0, dilation=1, ceil_mode=False)
    (12): Conv2d(512, 512, kernel_size=(3, 3), stride=(1, 1))
    (13): BatchNorm2d(512, eps=1e-05, momentum=0.1, affine=True, track_running_stats=True)
    (14): ReLU(inplace)
    (15): MaxPool2d(kernel_size=2, stride=2, padding=0, dilation=1, ceil_mode=False)
  )
  (classifier): Sequential(
    (0): Dropout(p=0.5)
    (1): Linear(in_features=512, out_features=256, bias=True)
    (2): BatchNorm1d(256, eps=1e-05, momentum=0.1, affine=True, track_running_stats=True)
    (3): ReLU(inplace)
    (4): Linear(in_features=256, out_features=2, bias=True)
  )
)
2019-06-06 00:03:25,746:WARNING: Test: [9/10]
    Time 1.219 (0.403)
    Loss 33.6144 (47.6360)
    Accuracy Diabetes@ 0.121(0.1209)
        Diabetes F1 0.2147(0.2147)
            Diabetes recall 1.0000(1.0000)
            Diabetes precision 0.1203(0.1203)
    Accuracy Glaucoma@ 0.881(0.8812)
        Glaucoma F1 nan(nan)
            Glaucoma recall 0.0000(0.0000)
…
